PINN_EDAG_Viertelfahrzeugmodell.pkl (torch, 129650 bytes, 9 tensors)

weight f4 [100, 1]
000000 a8 89 3b bf 3b 0f 1f 3d 3d 95 30 3f a0 e2 3d be
       -0.7325692 0.038832884 0.6897772 -0.18543482
000010 30 6a ed be b4 b7 e3 be db 95 3c 3e 14 56 62 3d
       -0.46370077 -0.44476092 0.1841654 0.05525787
000020 aa a5 00 bf f0 53 4d 3f 74 a2 3d 3e 8a 5b 20 bf
       -0.50252783 0.80206203 0.18519002 -0.6263968
000030 06 4f 1f 3f cb 83 2c 3f d8 d8 ef be 60 4e 88 3e
       0.62229955 0.673886 -0.46845126 0.26622295
000040 fc a7 02 be b5 b6 54 3f 84 28 49 3e 80 90 9a be
       -0.12759393 0.8309129 0.19644362 -0.3018837
000050 58 ad b2 be 72 96 fe 3e b9 d7 52 bf 58 ba 65 bf
       -0.34897876 0.49724156 -0.82360417 -0.89737463
000060 89 5f 9c 3d 2d 77 eb 3e bd 47 92 3d 8b e1 84 be
       0.076354094 0.4598936 0.07142589 -0.25953326
000070 df a7 89 3e 33 a9 2a 3f 5c 86 06 bf 3d 29 39 3f
       0.26885888 0.6666443 -0.52548766 0.7232855
000080 04 08 83 3d 9c 4d c3 be 00 af 90 3b 59 5f 47 3f
       0.06398013 -0.3814515 0.004415393 0.77879864
000090 40 57 b5 3c d1 1f 28 bf 6f fe 95 be 83 18 fe 3e
       0.02213633 -0.6567355 -0.2929568 0.49628076
0000a0 06 e5 5b bf dc d5 71 bf 80 19 62 3d 89 6c 10 bf
       -0.8589634 -0.9446695 0.0552001 -0.5641561
0000b0 30 58 23 bf 4d d9 07 3f 61 8a 84 3e c1 3a 80 bf
       -0.6380644 0.5306595 0.25886825 -1.001793
0000c0 fc 40 ad 3d 25 04 0c 3f 54 1b 66 bf ce 08 5e 3f
       0.084596604 0.54693824 -0.8988545 0.86732185
0000d0 32 44 33 bf 03 73 22 bf c5 5a 50 3f aa b7 82 3e
       -0.7002593 -0.63456744 0.81388503 0.2553075
0000e0 c8 bf bf 3e e1 d1 3f 3f 8f be 27 3f 0c 70 0a 3f
       0.37451005 0.74929625 0.65525144 0.5407722
0000f0 e8 b2 5d be 6f fe 6f bf 77 6c a8 be 70 71 51 3f
       -0.21650279 -0.9374761 -0.32895252 0.81813717
000100 8e 23 5a 3f a9 96 7b bf ec 38 7b bf ba 2d 05 bf
       0.852105 -0.98276764 -0.9813373 -0.520229
000110 a8 a3 56 be 9c 21 f2 3a 0b 0b 24 3f f6 cb 0f bf
       -0.20960867 0.0018473151 0.6407935 -0.56170595
000120 8a 0a b4 3e b9 da 7a bf d7 25 f2 3d 56 e8 73 bf
       0.3516429 -0.97989994 0.118236236 -0.9527639
000130 00 1e c8 bd e4 be 83 bf 67 5a a5 be c0 f3 a8 bd
       -0.09771347 -1.029263 -0.32295534 -0.082496166
000140 17 fa 70 3e 66 16 56 be 40 d6 e8 bc ae c9 f4 3e
       0.23532902 -0.20906982 -0.028422475 0.4781012
000150 b6 3c 7f bf 0a ae ec 3d ac 71 54 bf 0a 53 77 bf
       -0.9970201 0.11556633 -0.8298595 -0.9661108
000160 71 fb bb 3e 0e 81 24 bf b2 f2 01 bf 82 65 a4 be
       0.36715272 -0.6425942 -0.5076095 -0.32108694
000170 3c cc de 3d e4 61 3b 3f 13 4d 40 3e a8 5f 0b be
       0.10878798 0.73196244 0.18779401 -0.13610709
000180 71 de 45 bf b4 c0 61 bf 6c 60 55 3f 0a 32 54 3f
       -0.77292544 -0.88184667 0.83350253 0.82888854

bias f4 [100]
000000 8b 57 31 3f 93 75 01 bf 95 b8 4d 3f 58 50 f9 be
       0.69274205 -0.5057003 0.80359775 -0.4869411
000010 da 7f 79 bf 5c 44 e3 be b5 b7 92 3e 63 16 8f 3e
       -0.9746071 -0.44388092 0.28655782 0.27946767
000020 70 65 4a be 95 55 0e 3e 6f 68 56 bf 19 a9 38 3f
       -0.19765258 0.13899834 -0.83753103 0.7213302
000030 54 e6 37 3f 19 6e 1d 3f 50 02 a9 bd f8 dc fb 3d
       0.7183583 0.6149612 -0.08252394 0.12298006
000040 ba 57 9e 3e 77 64 00 bf 88 53 35 bc 00 8d de bd
       0.30926305 -0.501533 -0.011067279 -0.10866737
000050 83 da f7 3e 53 e4 11 bf 1f e6 40 3f 1b ad a8 3e
       0.484089 -0.5698902 0.75351137 0.3294457
000060 9d b3 1c 3f 66 98 ec be a1 0a 16 3f 78 0f 0f 3e
       0.6121157 -0.4621002 0.5860997 0.13970745
000070 bd 45 3b bf aa a8 0a bf d8 1f cb 3e e6 81 9b bd
       -0.7315329 -0.5416361 0.39672732 -0.075931355
000080 84 9a 9d be 2c 3c 7f bf a8 84 fc be f6 38 18 3e
       -0.3078195 -0.9970119 -0.4931996 0.14865479
000090 f0 0f 3d be 26 e0 e2 3d 69 f8 49 3f 24 50 fa bd
       -0.18463111 0.11077909 0.7889467 -0.12222317
0000a0 28 c9 77 be 88 8e 42 be ae 3f 63 bf 89 22 15 3f
       -0.24197829 -0.18999684 -0.8876904 0.5825582
0000b0 48 98 66 bf 86 d6 27 3d 30 a8 2c 3f 0c c4 9a 3d
       -0.9007611 0.04097607 0.67444134 0.07556924
0000c0 83 f6 f8 3e bf b9 18 3f 0d 0a bd 3e 54 99 b9 3e
       0.48625574 0.59658426 0.3692173 0.36249793
0000d0 c9 ec 49 3f 63 a2 75 3e bd 7e 6f bf 7b 07 a7 3d
       0.7887693 0.23987727 -0.9355276 0.08155724
0000e0 ff 68 25 3f 08 3a 27 3e eb 02 3a bf 95 2b 19 3e
       0.64613336 0.16330731 -0.726607 0.14958031
0000f0 f0 d3 e6 be 6e 15 0d 3f f2 b1 e5 3d 53 05 a4 be
       -0.4508357 0.55110824 0.11215581 -0.32035312
000100 0b c7 34 3e d0 4f eb 3e 3a 52 da 3e 30 66 af bd
       0.17654054 0.4595933 0.4264086 -0.085644126
000110 b2 f2 5e bf 95 b3 de be a6 0d ae 3e e2 fa 36 bf
       -0.87089074 -0.43496385 0.33994788 -0.71476567
000120 d0 15 9e 3d a0 00 02 3f 29 46 0b be 24 69 19 bf
       0.07719004 0.50782204 -0.13600983 -0.59926057
000130 e0 d4 55 bd 4d a8 d2 3e 1b a8 bb 3e 28 4d 6c be
       -0.052204967 0.41144028 0.36651692 -0.23076308
000140 20 58 a9 3e 4a 22 15 3f 22 7d 02 bf e8 70 fc 3e
       0.33075047 0.58255446 -0.5097219 0.4930489
000150 2f 72 b7 3e 8b 61 38 bf e4 e8 25 bf bf cd 29 3f
       0.35829303 -0.7202384 -0.6480849 0.6632957
000160 23 8b 63 3e 74 10 dc be 7c 95 3e bf a8 b6 eb 3e
       0.22221045 -0.42981303 -0.74446845 0.46037793
000170 1b 12 9e 3b 9a cc 61 3d ac 0a 79 3e d7 f6 ba 3e
       0.0048239357 0.055126764 0.24320477 0.3651645
000180 8b 81 2e 3f f8 2b 65 3f ee 1e c2 be 8f c4 c7 3e
       0.68166417 0.89520216 -0.37914222 0.3901715

weight f4 [100, 100]
000000 0c 88 a1 bc 29 8f 05 bd 25 9a 2c bc 29 70 c2 3d
       -0.019718193 -0.03260723 -0.010534798 0.09494049
000010 44 e6 fc 3c ed c0 8d bd a3 97 76 bd ac e8 a6 3c
       0.030871518 -0.06921563 -0.060203206 0.020374618
000020 02 4f 47 3d 81 54 f4 bd d9 52 07 be 80 6c de ba
       0.048659332 -0.1193018 -0.13215198 -0.0016969591
000030 ae 38 1e be eb 63 19 bd 40 74 23 bb de dd 98 bd
       -0.15451309 -0.037448805 -0.0024941117 -0.07464193
000040 86 88 11 be 33 3d 00 be 1c 46 c1 bc a8 03 96 bc
       -0.14212236 -0.12523346 -0.023593001 -0.01831229
000050 60 2c 8e bd e4 cd ab bd 50 ff 03 3c 4d d6 9c 3d
       -0.069420576 -0.0838888 0.008056477 0.07658062
000060 5c 64 66 3c 2e 28 da 3c e1 fc 82 bd e6 84 99 bd
       0.0140620135 0.026630487 -0.06395889 -0.074960515
000070 63 dd 10 3d 19 9d c2 3c ee 4c 25 3d 0b 40 9d bd
       0.03536738 0.02375655 0.04035657 -0.07678231
000080 bc 29 75 bc b3 36 bb 3d d3 9d 5c bd b4 6b d0 bd
       -0.0149635635 0.091412924 -0.05386145 -0.10176793
000090 fa f5 6e bd 4d 47 b5 3d 5f 1c f3 bd 10 16 19 be
       -0.05834005 0.0885149 -0.11870646 -0.14949822
0000a0 7f b8 8d 3d 42 ed 9a bd 72 5c 6b 3d ae a4 91 bd
       0.069199555 -0.075647846 0.05746121 -0.07111488
0000b0 49 9d 92 3d ac 6e ce bd 1d 28 dc bd d0 bb bb bb
       0.07158906 -0.10079703 -0.107498385 -0.005729176
0000c0 83 20 20 be 1e 4f b8 bb df 9e b8 3d e3 c4 e5 bb
       -0.15637402 -0.005624666 0.09014677 -0.007011996
0000d0 00 c3 d6 3b 40 45 2b bd 69 30 4e 3c c8 89 1b bc
       0.0065540075 -0.04181409 0.012584784 -0.009493299
0000e0 06 77 30 bd 28 ba d5 ba 62 96 15 3d e0 55 31 3c
       -0.04308226 -0.0016306089 0.03652037 0.010823697
0000f0 f4 6e ed bc 2a 90 c7 bd 12 e5 13 3d e0 02 b4 bd
       -0.02898357 -0.09744294 0.03610713 -0.08789611
000100 51 ca 03 be 5d d0 89 bd c6 a9 7c 3d 95 db bb 3d
       -0.12870146 -0.06729195 0.061685346 0.09172741
000110 00 e0 de 3b 93 8c 66 bd 92 fb 26 bd 52 06 4a 3d
       0.006801605 -0.056286406 -0.04076726 0.049322434
000120 19 e6 1e bd d8 3d dd bc 96 f8 16 be 63 4e a3 bd
       -0.038793657 -0.027007028 -0.14743266 -0.079739355
000130 56 37 36 3d e5 81 c1 3d f3 49 32 bd 1b ef 99 bd
       0.044486366 0.094486035 -0.043527555 -0.07516309
000140 e0 cc 50 bd 69 fc 27 bd 80 3c 6e bd 30 c4 db bd
       -0.050976634 -0.0410122 -0.058163166 -0.10730779
000150 cd 7f bf bd 6b 7f 81 bd 12 af 77 3d 77 f6 87 3d
       -0.09350548 -0.06323131 0.060469694 0.06638806
000160 a9 d1 0c be f3 5d 9a 3d 10 c2 77 bc 04 0d fe 3c
       -0.13751854 0.07537451 -0.015121952 0.031012066
000170 b4 ed c5 3c 46 ef 52 3c aa cb 81 3c 54 b3 52 3c
       0.024161197 0.01287443 0.015844185 0.012860138
000180 bb 5d ab 3d 21 1a 99 3d d0 61 28 bd 28 31 04 be
       0.08367487 0.07475687 -0.041108906 -0.12909377
000190 ae 08 34 3d 53 8a bd bd 80 79 b5 bc 82 88 57 3d
       0.04395359 -0.09254899 -0.022152662 0.05262042
0001a0 e3 c9 b5 bd a0 1f 2c 3b 3e a8 6e 3d 1a 3d 38 3d
       -0.088763975 0.0026263967 0.058265917 0.044980146
0001b0 0a 1c 00 3d f4 55 c9 3c e2 e5 0e 3d 61 89 98 3d
       0.03127674 0.024577118 0.034887202 0.07448078
0001c0 ac 1f da bc 60 a0 ad 3c dc ea ea 3c 9d 3b ab bd
       -0.02662643 0.021194637 0.028676443 -0.0836098
0001d0 2a fb 52 3d da 8e 66 3d ee f3 1e 3d 82 c5 67 3d
       0.05150906 0.056288578 0.03880685 0.056584843
0001e0 ed a6 a7 bd f9 ec 9f 3d 8c 1d 18 bd fb 2c a9 bd
       -0.081861354 0.07808871 -0.037137553 -0.082605325
0001f0 68 d9 b2 bd 89 7b b8 3d 01 97 be 3d 8b 61 b2 bd
       -0.08732873 0.090079375 0.093061455 -0.08710011
000200 68 e0 77 3c 18 4b 09 bc 69 42 c6 3d 40 b6 c3 bd
       0.015129186 -0.00837972 0.096806355 -0.09556246
000210 2a f3 b1 bd bd 6b 23 bd 00 24 25 bd 4e 6e 16 3d
       -0.08688958 -0.03989767 -0.040317535 0.03672629
000220 15 22 c0 3d ab 21 b1 3d 6d 81 cc bd c2 eb 25 3d
       0.09381501 0.08649 -0.099856235 0.04050804
000230 aa 93 9d bd f0 b7 a2 bd 49 ec a8 3d 0c 96 f0 bc
       -0.0769418 -0.079452395 0.08248193 -0.029368423
000240 fc 24 0e bd 30 de 19 bc 77 32 bb bd 5f d5 a3 3d
       -0.03470324 -0.0093913525 -0.09140485 0.07999682
000250 ae ee 3f 3d 30 4f 52 3c a8 40 04 bc c6 fe 93 bd
       0.046858482 0.012836263 -0.008072056 -0.072263286
000260 16 a0 ac bd d3 25 b4 3d c2 63 cc bd fa 5b 47 3d
       -0.084289715 0.08796277 -0.09979965 0.0486717
000270 c0 a6 08 3c 84 bb f3 3c 1e 1d a5 bd 43 b9 c6 3d
       0.008340538 0.0297525 -0.08062194 0.097033046
000280 f0 25 64 bc c2 58 16 3d a5 e1 99 3d a8 85 da bc
       -0.013925061 0.03670574 0.075137414 -0.02667506
000290 30 ab 21 bc e6 d2 3d 3d a0 46 9e bb 76 7b 8a bd
       -0.009867474 0.046343707 -0.0048301965 -0.067618296
0002a0 b3 cd 97 bd 3a d3 05 bd c8 db da bc 77 0c b6 bd
       -0.07412281 -0.032672144 -0.026716128 -0.08889096
0002b0 52 7b 9f bd 8d a7 60 bd a3 7d 47 bd 99 0f a6 3d
       -0.07787193 -0.05484729 -0.0487038 0.08108444
0002c0 b0 67 22 bd 42 3b 73 3d 85 14 97 bd a0 fb 57 bb
       -0.039649665 0.059382685 -0.07376961 -0.0032956377
0002d0 4e 61 1e 3d 74 63 e7 3c fa c1 4d 3d 41 81 a7 3d
       0.038667016 0.028245665 0.05023382 0.0817895
0002e0 b8 7d a2 bc 9a 14 42 bd 00 70 ff b9 08 d6 82 bd
       -0.019835338 -0.04738293 -0.00048720837 -0.063884795
0002f0 bd de af bd fe 6c 97 bd d6 d8 0f 3d 57 3a 5c bd
       -0.08587406 -0.073938355 0.0351189 -0.053766575
000300 03 1b bd bd b3 45 5e bd 5a a8 8e bd ed cb 6a bd
       -0.09233668 -0.05426569 -0.06965704 -0.057323385
000310 09 8e b5 3d 03 e1 40 bd 39 57 93 3d a7 b5 1a bd
       0.08864982 -0.047089588 0.07194371 -0.037770893
000320 01 16 f4 3c 12 2d 55 bd ec ff af bc 28 f2 7c bc
       0.029795649 -0.052044936 -0.021484338 -0.015438594
000330 2d 36 64 bd d4 b8 85 bc 06 2a 4c bd 6d 56 9b bd
       -0.05571573 -0.016323484 -0.049844764 -0.07584844
000340 d3 89 b8 3d 40 d0 dc bc bc 79 57 bd 57 6f 5a 3d
       0.09010663 -0.02695477 -0.05260633 0.05332884
000350 84 52 5a bd a7 a5 84 3d 1a 48 7b bd 2f 4f 72 3d
       -0.05330135 0.06476908 -0.06134806 0.059157547
000360 76 8d 45 3c 49 74 94 bd b5 b7 18 bd 85 bb 9a 3d
       0.012057653 -0.07248742 -0.03728457 0.07555298
000370 59 12 5b bd 4f b9 1d 3c 52 40 8e bd 24 11 8d bc
       -0.053484295 0.009626701 -0.06945862 -0.017220087
000380 ac 69 e9 bd b3 c6 81 3c 35 d0 ce 3c 79 98 0a be
       -0.113971084 0.015841817 0.025245765 -0.13534726
000390 d5 48 b8 bd 0b 5f f4 bd cc 02 74 bd 2f bf 8e bd
       -0.089982666 -0.119321905 -0.05957298 -0.06970059
0003a0 fe af 80 3c e8 1c 8f bc f8 0f ca bd 78 ba b1 bc
       0.01570892 -0.017469838 -0.09866327 -0.02169536
0003b0 12 89 a4 bd 1d 84 df bd 9c db 08 bd b5 58 80 bd
       -0.080339566 -0.109138705 -0.03341256 -0.062669195
0003c0 91 4b a0 3d b0 bf 29 bc da 58 17 3d ce d9 35 3d
       0.07826913 -0.010360643 0.03694997 0.044397168
0003d0 00 98 46 bb 89 f1 08 bd f5 49 9a bd 10 bf f5 3d
       -0.0030303001 -0.03343347 -0.075336374 0.11999333
0003e0 59 f2 4e bd 35 7a 85 bd 34 cb 16 be 1c ce 52 bd
       -0.05052409 -0.0651745 -0.14725953 -0.051466092
0003f0 a9 7e 0a bb da a8 07 bd e8 b6 95 bd 12 ce 4d 3d
       -0.0021132624 -0.033120014 -0.07310277 0.050245352

bias f4 [100]
000000 b1 86 05 be 68 c2 dd bc 87 ac fe bc b3 75 10 bc
       -0.13039662 -0.02707024 -0.031088127 -0.008817124
000010 3e aa c0 3c a6 97 e4 3d 54 f0 90 bb be 28 b1 bd
       0.023518678 0.11161737 -0.0044231806 -0.08650349
000020 8f 99 01 be 07 fe 88 bd 86 c7 b5 bd a3 07 48 bd
       -0.12656234 -0.06689077 -0.08875947 -0.048835408
000030 1f 66 1e be 22 43 c9 bd a0 00 9d bd 26 42 5a bc
       -0.15468644 -0.09827258 -0.07666135 -0.013321435
000040 a9 6a 1d 3c 9f a4 40 ba 91 60 a4 3d 73 85 5b bb
       0.009607949 -0.0007348749 0.08026231 -0.003349629
000050 00 dd 49 bc b0 d8 2b 3c aa 7a 1f be 9b ce ac 3d
       -0.012320757 0.010488674 -0.15574136 0.08437844
000060 00 81 cd bd f2 19 0b bd e6 15 58 3d d9 de 12 bd
       -0.100343704 -0.03396029 0.05275526 -0.035857055
000070 39 ea 51 3c c6 8c 57 3d 23 ee 76 bd 20 7a d8 bd
       0.012812191 0.052624486 -0.0602857 -0.105701685
000080 cc bb 57 bd bc 59 d5 3c b0 3e be bd f9 e7 c7 3d
       -0.05266933 0.026043765 -0.092893004 0.09761042
000090 c5 4c 6e bd e9 c4 36 be 35 48 9e 3d 9a ed 78 bd
       -0.058178682 -0.17848553 0.07728616 -0.06077347
0000a0 f1 a3 36 3c 99 91 9e 3d e7 a1 36 bd 17 69 96 bd
       0.011147485 0.07742614 -0.044587996 -0.07344263
0000b0 7b d5 07 be 00 b4 52 bd fc 83 01 be 48 09 b5 bc
       -0.1326503 -0.051441193 -0.12648004 -0.022099152
0000c0 b2 63 7e 3d d8 ff 59 bc 43 c2 00 3c ea a9 a3 3c
       0.062106796 -0.013305627 0.007858816 0.019978482
0000d0 75 14 31 bc 50 f5 b3 bd dd ce c1 3d dd 0e 5a bd
       -0.0108081 -0.08787024 0.09463284 -0.05323683
0000e0 b8 db e7 bc 2d f3 b9 bd 6c 25 0b bd 5a 92 64 3d
       -0.028303012 -0.09079585 -0.033971235 0.055803634
0000f0 31 b1 68 bd c6 d1 d7 3c b8 08 14 3c e8 2d 98 bc
       -0.056809608 0.026345145 0.009035282 -0.018576577
000100 bb f0 ba bd 07 e6 95 bc 28 06 86 bd 1e c3 17 be
       -0.09127947 -0.018298162 -0.06544143 -0.14820525
000110 ce ed 12 3e e8 8a eb bc e0 41 05 be 08 8d 69 bd
       0.14348528 -0.02875276 -0.1301341 -0.057019264
000120 e5 15 1c bd dc e2 16 3d c0 91 e2 3c ec d9 64 3d
       -0.038106818 0.036837444 0.02765739 0.05587189
000130 a4 be f2 bd 7a 74 5f bd bd a8 35 bd 0b 9e d3 3c
       -0.11852768 -0.05455444 -0.044350374 0.025832197
000140 bf 46 f5 bd c3 f0 1a bd c5 95 ab bb 6e c8 7d bc
       -0.11976384 -0.037827265 -0.00523636 -0.015489681
000150 3a 48 60 bd a7 3d 0f be f6 ff 22 3d e8 1b de bd
       -0.05475638 -0.13988362 0.039794885 -0.108451664
000160 8f df e0 bc 5d d2 f8 bd 90 46 aa 3d 2d 3c ff ba
       -0.027450351 -0.121494986 0.0831424 -0.001947289
000170 5c 90 4e 3c a3 47 c3 3d f5 0a 1c be 85 f4 26 ba
       0.01260766 0.09535148 -0.15238555 -0.0006368834
000180 90 6a 9b bd d2 33 eb bc 50 85 86 bd b9 fe ab bd
       -0.075886846 -0.028711233 -0.06568396 -0.08398194

weight f4 [100, 100]
000000 2f 7b a7 3d 02 aa 88 bd 17 c9 10 be a4 d0 03 bd
       0.08177792 -0.066730514 -0.1413921 -0.032181397
000010 02 23 17 bc 3f e5 e5 bb 96 43 da bc 8f 52 aa bc
       -0.009224655 -0.0070158537 -0.026643556 -0.02079132
000020 cb 62 be bd 2b 9c b6 3a f6 d1 11 bd 05 67 ba 3c
       -0.09296187 0.001393204 -0.035600625 0.022754202
000030 86 c3 16 3e 02 94 ad bd 66 76 d1 bd 94 80 7a ba
       0.14723024 -0.08475496 -0.10227661 -0.0009555903
000040 5b c1 18 bd b3 f1 00 3c 84 1d e0 3c e0 94 7a 3d
       -0.037293773 0.007870126 0.027357824 0.061177135
000050 48 1e af bc 31 08 8c 3d c0 03 62 3d 43 e0 a1 bc
       -0.021376744 0.068375 0.055179358 -0.019760257
000060 52 07 2f bd af 81 1c 3d 09 be ca 3d d9 67 36 bd
       -0.04273159 0.038209613 0.098995276 -0.04453263
000070 f3 ca d0 bc 50 8d b8 3b a6 fb 03 bc 09 a8 02 bd
       -0.025487399 0.00563208 -0.008055603 -0.031898532
000080 51 0c 57 3d c6 8a cd 3c 26 50 82 bd 87 5d 44 bd
       0.05250198 0.025090586 -0.06362943 -0.047940757
000090 06 cb cd 3d 7e 4f 26 3d 20 4c f9 3b b6 7d 10 3d
       0.10048489 0.040603153 0.0076079518 0.035276137
0000a0 71 ee 1c 3e 2c f2 03 bd 1a 2f 5b bc 1c e3 af bc
       0.15325333 -0.032213375 -0.013377929 -0.021470599
0000b0 aa 3f ef bd 52 e0 8a bd a5 00 46 3c 3b 43 d7 bd
       -0.11682065 -0.06781067 0.012085115 -0.1051087
0000c0 3a b9 53 3d 7f 52 b1 bd 81 a2 30 bd 28 cf 8b 3d
       0.051690318 -0.08658313 -0.043123726 0.06826621
0000d0 b6 6d 07 3e 36 6b 96 bd bd 12 f7 bb a8 f6 02 3c
       0.13225445 -0.073446676 -0.0075400756 0.007993378
0000e0 4e fd 13 3e 6e b5 49 3d 40 f8 23 bd 5b f3 8d 3d
       0.14452097 0.04924529 -0.04003167 0.06931182
0000f0 90 e9 54 bd 7c 15 03 be 37 5f 07 be 51 26 a2 3c
       -0.051980555 -0.12801164 -0.13219915 0.019793661
000100 aa f9 45 3d 1d ad 1a bd d8 9c f6 bd ac 44 64 bd
       0.0483338 -0.03776275 -0.12041634 -0.055729553
000110 50 70 9f 3c 66 06 01 bd d6 bd 13 3e 36 9a f3 bd
       0.019462734 -0.031500243 0.14427885 -0.11894648
000120 84 67 12 be 58 1c 0f be 15 48 d5 bd 25 05 ca bd
       -0.142973 -0.13975656 -0.10414139 -0.098642625
000130 9b d0 30 3d 68 0b 27 3c c4 ae 87 bd 26 a7 56 bd
       0.04316769 0.010195591 -0.06625131 -0.0524055
000140 bc 71 38 bd f6 7b 54 3d 03 c2 ce bd 07 c1 f1 bd
       -0.04503034 0.05187603 -0.100955985 -0.11804395
000150 52 e9 1c 3d 16 fd 06 be 32 b5 21 3d e3 32 5e 3d
       0.03830845 -0.13182482 0.039479442 0.054247748
000160 cb 60 b9 bd e4 a3 40 bd ee 0c 88 bd d9 b2 08 3e
       -0.09051665 -0.0470313 -0.06643091 0.13349475
000170 77 99 14 bb e5 78 12 be e6 4f 10 bd fa 5d 78 3c
       -0.002267448 -0.1430393 -0.035232447 0.0151591245
000180 c8 74 8f bd 1d 27 5b 3d 2a bf 05 3d ca 97 ab bb
       -0.07004696 0.0535041 0.03265301 -0.0052366005
000190 67 26 87 3d f1 1b 88 3d a5 85 b6 bd b6 97 2d 3d
       0.065991215 0.066459544 -0.089122094 0.04238101
0001a0 99 54 bc bc 83 1f a7 3d 03 38 b3 bd 00 55 4f bc
       -0.022989558 0.08160307 -0.08750918 -0.012654543
0001b0 be ab 02 3d d2 38 7a 3d 4e 7f 2a 3d b6 e5 45 3c
       0.031902067 0.061089344 0.041625313 0.012078693
0001c0 6c 76 f7 3c 6a 07 26 3d dc 77 05 bd f2 c1 15 3d
       0.030207835 0.040534414 -0.03258501 0.036561914
0001d0 ad 2b 1c bd f1 aa a5 3d a8 3c 24 bc 21 f7 8f 3d
       -0.03812759 0.08089245 -0.010024227 0.07029558
0001e0 42 e9 61 3d 00 54 97 bd 94 1d 9b bc ac 6d e3 bd
       0.055154093 -0.073890686 -0.018935002 -0.111049026
0001f0 e0 29 a5 bb ea 76 09 bd 74 b9 e6 bc 4a 8f 96 bd
       -0.0050403923 -0.03356067 -0.028164603 -0.07351549
000200 4b 03 aa bd ea 5b 6d 3d 78 10 a0 3c 30 d7 85 3b
       -0.08301409 0.057948984 0.019539103 0.0040844902
000210 00 1b b4 39 14 2c 9e bc 40 8a b0 bd 60 12 7a bd
       0.00034352392 -0.019308127 -0.08620119 -0.06105268
000220 50 92 3e bc 17 3f 6e bd ac 61 92 bc 8c e7 86 3c
       -0.011631563 -0.058165636 -0.01786884 0.016467832
000230 48 6d dd bc b2 7e b5 bd 8f 59 c9 3d be 3e a4 bd
       -0.027029648 -0.08862056 0.09831535 -0.080197796
000240 df 2a 92 3d 7d e9 95 bd dd 17 8f 3d 18 0a 6d bc
       0.07137083 -0.07319925 0.069869734 -0.014467739
000250 77 49 c2 bd 28 8c 83 bc 02 99 4e 3d 8f 16 c6 3d
       -0.094866686 -0.016058043 0.05043889 0.096722715
000260 60 91 f1 bb 70 f9 68 bc fe 55 16 be e1 61 bc 3d
       -0.0073720664 -0.014219627 -0.14681241 0.091983564
000270 a8 b6 ac 3c 32 b2 04 3d f6 34 04 be 37 a6 1b bd
       0.021083191 0.032396503 -0.12910828 -0.03800031
000280 f0 4b 66 bd 58 07 de bc 11 16 62 bd 12 52 bd bd
       -0.056224763 -0.027103111 -0.055196825 -0.09244169
000290 69 54 be 3d cd 7c ab bd 60 80 45 bb b1 b3 cc 3d
       0.09293444 -0.08373413 -0.0030136332 0.09995211
0002a0 b8 bb 18 be e5 0e a7 3d 98 b6 8d bd 92 ec 7d 3d
       -0.14915359 0.08157138 -0.069195926 0.06199319
0002b0 28 e2 b7 bc fc 6c 7e bc c7 80 c9 bd f8 b1 bf bd
       -0.022446707 -0.015528914 -0.098390155 -0.09360117
0002c0 40 1b 21 3c 80 36 d9 ba 7c 3b d5 bd 91 d9 8c 3d
       0.009833157 -0.0016572028 -0.10411736 0.06877435
0002d0 23 12 6a bd 1a f7 44 3d a0 c4 62 3b 5d d8 80 bd
       -0.057146203 0.048087217 0.003460206 -0.06291268
0002e0 c5 ed 90 bd 3e 05 61 3d 80 71 85 bc 2c 94 ce bc
       -0.07076601 0.05493664 -0.016289473 -0.025217138
0002f0 68 49 93 3c 38 fc e3 bc ce c7 e2 bd 19 d9 86 3d
       0.017979339 -0.027830228 -0.11073266 0.06584377
000300 60 9a ff 3b fc 4e 05 be 92 51 72 3d 44 f2 15 bd
       0.0078003854 -0.13018411 0.059159823 -0.036607996
000310 07 66 67 bd 24 80 fb 3c 7e 16 3a 3d 13 79 aa bd
       -0.056493785 0.03070075 0.045431606 -0.08323874
000320 9b 30 ba bd 7b c4 a4 3d e0 91 8b 3c c2 52 46 3d
       -0.09091302 0.08045288 0.017037332 0.048418768
000330 8b 02 a3 3d 33 ed 25 bd ef 65 b8 3d ca 2f 55 3d
       0.079594694 -0.040509414 0.09003817 0.05204753
000340 80 4c 1c 3c 00 bf c7 3c 93 05 c4 3d c9 54 c8 3d
       0.009539723 0.024383068 0.09571376 0.097817965
000350 6d 3e 5a bd d0 c6 93 bd 17 e6 45 bd de e7 a3 bd
       -0.05328219 -0.07215655 -0.048315134 -0.080032095
000360 91 98 b6 3d 82 07 14 3d c0 57 57 3c cb c2 bd 3d
       0.089158185 0.036139973 0.01314348 0.092656694
000370 58 fb 17 bc c8 d8 88 bd 6e d3 15 3d 42 59 cb bd
       -0.009276234 -0.06681973 0.03657859 -0.09929134
000380 e3 80 af bd 02 4f 06 3d a2 72 4f 3d 68 09 c4 bd
       -0.08569505 0.03279019 0.05064643 -0.095721066
000390 0d 73 c3 bd a6 a8 72 3d be 83 3c 3d 83 d5 c5 bd
       -0.095434286 0.059242867 0.046024077 -0.09659865
0003a0 df f2 b3 3d 8d 52 c5 bd ad 61 58 bd a0 30 b4 3c
       0.08786558 -0.09634886 -0.052827526 0.021995842
0003b0 30 50 0d 3c fa ad 1d bd 80 d6 ac bc e7 9b 46 bd
       0.008625075 -0.038495995 -0.021098375 -0.048488524
0003c0 80 fc cf 3b 95 2e c6 bd e3 26 a4 bd a8 02 a4 bd
       0.006347239 -0.096768536 -0.080152296 -0.08008319
0003d0 fa c6 34 3d c7 f7 5f bd 5e b3 1d 3d 96 c5 25 3d
       0.04413507 -0.05467966 0.038501136 0.040471636
0003e0 00 7b 01 bb 96 3b 03 bd 14 57 f7 bc e1 2c a4 3d
       -0.0019757152 -0.032039247 -0.03019289 0.080163725
0003f0 4b 8c a6 3d 12 69 14 3d 38 57 f7 bc 60 99 ab bb
       0.081322275 0.036233015 -0.030192956 -0.0052367896

bias f4 [100]
000000 e0 ea 33 3d 48 46 56 bd 08 b9 8c 3c fa bc 07 3d
       0.043925166 -0.05231312 0.017178074 0.033139206
000010 85 dc 0f 3d 36 b5 c3 3d d5 77 d9 bc e3 bf c2 bc
       0.035122413 0.095560476 -0.026546398 -0.02377314
000020 67 0b ad bc 1e 0c a6 3c 1f 6f 13 3d 56 07 f8 bc
       -0.021123601 0.02026945 0.035994645 -0.030276936
000030 62 5b c5 bc 31 b0 fc bc 1b fd c6 bd 24 e9 d9 3c
       -0.024091426 -0.030845733 -0.09716245 0.026600428
000040 b3 e9 91 bc e5 33 d0 bd d1 f7 ee bc 4d 67 c6 bd
       -0.017811632 -0.10166148 -0.029170902 -0.09687672
000050 80 c5 30 3c 71 c7 c5 3c a3 bd 07 bd 14 3b 94 bc
       0.010789275 0.024142953 -0.033139836 -0.018094577
000060 d4 52 d8 3c 77 3e 05 be b6 d2 cf bd 7d fe 19 bd
       0.026406683 -0.1301211 -0.10147612 -0.037596215
000070 72 b4 25 bc fe 57 64 3d 8d b4 05 be f5 3f 0e bd
       -0.010113822 0.05574798 -0.13057156 -0.034728963
000080 ac ed 03 bd 4c c8 74 bd ef 5a 86 3d 76 fc 94 3c
       -0.032209083 -0.05976133 0.06560313 0.018186789
000090 a4 b5 a3 3d c0 cd 7a 3d b1 9f fe bc f3 89 b0 bd
       0.079936296 0.061231375 -0.031082006 -0.08620062
0000a0 63 9a ec bd 2c 31 1c bd 5f 12 cd 3c 72 7f 25 bb
       -0.115528844 -0.03813283 0.025033174 -0.0025252965
0000b0 eb 40 b6 bd 66 82 d5 3c 15 a4 42 bd 70 30 c7 3c
       -0.08899101 0.026063155 -0.047519762 0.024315089
0000c0 ba 5a fe 3c b0 58 47 bc 9f 8e 51 bd 81 27 2c bd
       0.031049121 -0.012167141 -0.051161405 -0.04202986
0000d0 6f 41 31 3d 1d fc 5c 3c 0e 88 9c bd d8 8a a1 3d
       0.043275293 0.013487843 -0.07643138 0.078878105
0000e0 69 4c c4 bd e6 f5 0f be 13 2f 0c 3d fa 45 23 be
       -0.095848866 -0.14058647 0.03422458 -0.15944663
0000f0 29 00 6a bb 9d 0d 6c bd ed 49 04 bd e9 f4 99 bd
       -0.0035705662 -0.05763017 -0.032297064 -0.07517416
000100 6d 5d 04 be d5 b4 cb bd 98 a8 16 be 4c 62 fc bc
       -0.12926264 -0.099466 -0.14712751 -0.03080859
000110 68 a8 cc bd 23 67 c7 bd 12 8e 0b be cb f0 11 be
       -0.099930584 -0.09736469 -0.13628414 -0.14252011
000120 8f 75 f0 3c bc a4 c3 bd 8b 23 a6 bd cd ec 9c bd
       0.029352931 -0.09552905 -0.08112248 -0.07662354
000130 4e a3 1e be 89 8a f9 3c fa a8 82 bd a5 7e 80 3c
       -0.15491983 0.030461567 -0.06379886 0.015685389
000140 f6 76 eb bd 7d dd 7a 3d e6 18 de bd 30 36 70 bd
       -0.114972994 0.061246384 -0.10844593 -0.058645427
000150 09 10 9c bc 7a f1 0a be 87 24 bd bd a1 78 23 bd
       -0.019050615 -0.13568678 -0.09235483 -0.039909963
000160 d2 fc 03 be 08 f8 88 3a ab 1f 9a 3c 4f 9f be bd
       -0.12889412 0.0010449896 0.018813929 -0.093077295
000170 f5 db b7 bd 36 73 16 be 2d de 17 bd e3 ef 13 be
       -0.089775 -0.14692387 -0.037077118 -0.14446978
000180 c6 3c cb bd 87 ca 77 bd 21 03 8d 3d 63 79 7f bd
       -0.09923701 -0.06049588 0.068853624 -0.062371623

weight f4 [100, 100]
000000 02 b7 a7 3c 59 cc b7 3d a7 f4 46 bd b0 68 c9 bd
       0.020473007 0.08974523 -0.048573162 -0.09834421
000010 d6 af 00 be d1 fd 8d bd 01 ba b9 3d 33 51 95 bd
       -0.12567076 -0.06933177 0.090686806 -0.07290878
000020 d9 76 88 bd 63 b1 ff 3c 96 58 c1 3c 1e 90 b5 bd
       -0.066632934 0.031212514 0.023601811 -0.08865379
000030 2e 98 ba bd c3 88 01 be d8 0d a9 bc a9 f4 97 bd
       -0.09111057 -0.12649827 -0.020636484 -0.07419712
000040 bb 98 d5 bd 39 24 a3 3d 41 2b db 3c 39 8f 9a 3d
       -0.10429522 0.07965893 0.026754024 0.07546849
000050 03 b2 92 bd d0 17 f4 3c 56 ec 87 bd 6d 74 c7 3d
       -0.07162859 0.029796511 -0.066368744 0.09739003
000060 92 f7 7f bc 58 42 2a 3c ee 5d 95 bd 73 d8 e2 bd
       -0.01562299 0.010391794 -0.07293306 -0.11076441
000070 f5 96 af bd 62 40 98 bd d3 9c 30 bd 7e a0 26 bd
       -0.08573715 -0.07434155 -0.04311831 -0.0406804
000080 41 1c 5d bd 74 c4 91 bd 23 7d a4 3d ab 6f 86 bd
       -0.053982023 -0.071175486 0.080316804 -0.06564268
000090 1b 98 9b 3c 28 5d f8 3b 4e 62 37 3d 6c 9a a4 bc
       0.018993428 0.0075794645 0.044771485 -0.020093165
0000a0 be 7d 0f be 5b 6e 90 bd 5f 7a 18 bd 3a a9 9a bd
       -0.1401281 -0.07052299 -0.037226077 -0.07551809
0000b0 07 65 a1 3d 8a ec 21 be a3 36 ba bd 14 76 00 be
       0.078805976 -0.15812889 -0.090924524 -0.12545043
0000c0 08 ce 93 bc 4e cf 13 bd d7 2b ee 3c 47 11 f0 bd
       -0.01804258 -0.036086373 0.029073639 -0.117220454
0000d0 c2 ea d0 3b 3d 9b c3 bc 0d e8 9f 3d 63 21 5f bd
       0.0063756416 -0.023877734 0.07807932 -0.0544752
0000e0 1a c4 98 bd bd c7 0a be 01 ae 14 3d 02 84 15 3d
       -0.074592784 -0.13552757 0.036298756 0.036502846
0000f0 08 57 de bd ea 5b 1d bd ea 63 5d bd 40 59 c7 bd
       -0.10856444 -0.038417734 -0.054050364 -0.0973382
000100 f4 85 df 3c 72 cd 40 bd 60 3b b0 bd f8 dc a0 3c
       0.027285554 -0.047070928 -0.08605075 0.019636616
000110 67 d4 12 3c 17 85 5b bd 20 2c b2 bd 50 05 b9 bd
       0.0089617735 -0.05359372 -0.086998224 -0.090342164
000120 e6 5e 85 3c 7e 26 57 3d 1a 26 4f bd 11 58 8c 3d
       0.016280603 0.052526943 -0.050573446 0.06852735
000130 bd 40 a6 3d 47 b6 11 be 20 f2 a5 3c ba b5 88 bd
       0.081178166 -0.1422969 0.020257056 -0.066752866
000140 aa 82 ec bd 14 f8 0c be 9b f5 c7 bd db 47 aa 3c
       -0.1154836 -0.1376651 -0.097636424 0.020786216
000150 8c ed e6 bd 90 56 6a 3c 0a b8 ac bd 3f 58 cf 3c
       -0.11275777 0.014302865 -0.0843354 0.025310634
000160 02 29 55 3d 05 58 b3 bd 91 7c 9c bd 21 14 0e be
       0.05204106 -0.08757023 -0.07640947 -0.13874866
000170 1a 40 8c bd 92 be 4d 3d 81 06 ec 3d bc bf 0f bd
       -0.06848164 0.05023057 0.11524678 -0.03509496
000180 d4 69 1c be 3a c9 2d bd 6f 22 cb bd ab 42 bf bd
       -0.15274745 -0.042428233 -0.09918677 -0.09338888
000190 4e c7 31 bc 1f 49 8e 3d e8 11 df bc 64 bc 25 3d
       -0.010850741 0.069475405 -0.027230218 0.040462866
0001a0 09 5a c6 bd e1 59 75 3c 9f 59 93 3c a9 40 08 3d
       -0.096851416 0.014975042 0.01798707 0.03326479
0001b0 6e b5 5c 3d 0b eb 8c 3d 84 db 17 3d 51 af 7e 3d
       0.053883962 0.068807684 0.03707458 0.062178914
0001c0 72 d4 24 be 67 8d f3 bd ba 93 a9 bd 01 e6 92 3c
       -0.16096666 -0.11892205 -0.0828013 0.01793194
0001d0 16 43 11 be 8c 48 77 3c e3 cc 31 3d b7 80 ae bc
       -0.14185748 0.01509298 0.043408286 -0.02130161
0001e0 37 a4 84 bd 75 04 0c 3e af 25 d2 bd 03 0a 2b bd
       -0.06476634 0.13673575 -0.10261094 -0.041757595
0001f0 bb fc 07 bc 65 5c 0b 3e e0 e1 94 bc ae aa 5a 3c
       -0.008300002 0.13609464 -0.018174112 0.013346357
000200 91 ad d9 3b 04 2c 94 3c 0a 34 92 bc b3 d6 1c 3e
       0.006643005 0.018087395 -0.01784708 0.15316276
000210 39 65 8f 3d f2 cc 0e bc e0 e6 c5 bd 2d 70 ae bc
       0.070017286 -0.008715855 -0.096631765 -0.021293724
000220 13 e9 cd bd 73 4c 57 3d 30 4c 0d be 00 ed 26 3e
       -0.10054221 0.052563142 -0.13798594 0.16301346
000230 2a b0 01 3e 36 fe 0f 3e 7a e4 44 3d 3a c3 13 3e
       0.12664858 0.14061818 0.048069455 0.14429942
000240 50 a9 a5 bd ba b8 1d be a5 cc 8f bd c9 52 3e 3d
       -0.080889344 -0.15402499 -0.07021455 0.04646567
000250 62 9d 0e 3d f3 9f 12 bd b5 03 02 3e 52 08 e8 3d
       0.03481806 -0.03579707 0.12696727 0.11329712
000260 7d 13 c9 bd 78 52 54 3d 09 ae 8c 3d a7 fa 15 be
       -0.0981817 0.05183646 0.06869132 -0.14646398
000270 eb ba 93 3d 1e bc da 3c 14 30 13 3e b0 2c a6 3d
       0.07213386 0.02670103 0.14373809 0.08113992
000280 b2 51 4c 3d 26 d4 31 3d 10 96 3e bd f5 da 24 bc
       0.0498826 0.04341521 -0.04652983 -0.010061969
000290 11 ec 8c 3d 96 87 ea 3c cf 1a 6d 3d 4c 2a 86 bd
       0.068809636 0.028629106 0.057886895 -0.06551036
0002a0 22 c2 14 3d 6a ac 40 bd a9 73 e1 3c 0f c1 a7 3c
       0.036317952 -0.047039427 0.027520971 0.0204778
0002b0 23 7a 0e 3e b9 04 4f bd b5 09 ff bc 6b e2 d8 3d
       0.13913779 -0.050541613 -0.031132558 0.10590061
0002c0 75 18 e4 bc 4e f3 ab 3c 45 28 b4 3d a6 4d a3 3c
       -0.027843693 0.02099004 0.08796743 0.019934487
0002d0 15 35 ac 3d 60 55 4d 3c a9 02 df bc 1c ab bb 3d
       0.08408562 0.012532562 -0.027222948 0.09163496
0002e0 cd 46 62 bd 71 14 9c bd c0 c9 03 bd f9 82 fa bd
       -0.055243302 -0.076210864 -0.032174826 -0.12232012
0002f0 22 fc ea 3d ad 3a 13 3e db cf 04 3d e2 4f af bd
       0.11473872 0.14377852 0.03242479 -0.08560158
000300 8a 16 a6 bd 5d 1d 51 bd 24 89 0d be 5b 4f 6d bd
       -0.08109768 -0.051053394 -0.13821846 -0.057937007
000310 89 be 3b bc 18 19 8e bc fb c2 f1 3d 75 21 78 3d
       -0.011459001 -0.01734595 0.11804768 0.060578782
000320 46 13 49 bd b1 da 33 bd 44 bc ec 3c 8a 3c 1f 3d
       -0.049090646 -0.043909732 0.028898366 0.038876094
000330 c5 0e cf 3c 9b 88 a9 bd f2 3f b6 bd 80 d6 c5 3d
       0.025275597 -0.082780086 -0.08898915 0.09660053
000340 a4 0c 87 3d 3e d9 1d 3e ec 2c 6c 3d 47 c1 44 3d
       0.06594208 0.15414903 0.05766003 0.048035886
000350 7e 0c 15 3d 3e 0b 1c bc 08 23 87 3c 95 63 35 3c
       0.036388867 -0.009524165 0.016496196 0.0110711055
000360 4b ac a9 3c eb 0b 5f bc 71 12 b9 bd f4 da 15 be
       0.020712039 -0.013613681 -0.090367205 -0.14634305
000370 12 75 85 bd e6 4e a8 3d ff 8e 10 bd 28 2e a1 bc
       -0.0651647 0.08218174 -0.03529262 -0.01967533
000380 53 3a 20 3e 96 ab ec 3d 39 e1 4c 3b 62 e2 a0 bd
       0.15647249 0.11556165 0.0031262173 -0.07855679
000390 b9 22 8d 3d 28 cd 6d bb 3b 01 39 3c 6c e1 6c 3d
       0.068913884 -0.0036285613 0.011291797 0.057832167
0003a0 4d d4 0b 3e 40 89 d7 3d 4a ba 25 bd 8a 9f 22 3c
       0.13655205 0.10524225 -0.040460862 0.009925732
0003b0 6f 93 d6 bc 1a 10 96 3d 28 46 24 be bc fd c0 3d
       -0.026193349 0.0732729 -0.16042387 0.09423396
0003c0 7b 9d a8 bb c3 81 81 3d 79 8b 3a 3c a7 10 8b 3d
       -0.0051457263 0.06323578 0.011385792 0.067902856
0003d0 79 a1 53 3d eb f0 8c 3a ec 8f 21 bd cd c1 c9 3d
       0.051667664 0.0010752951 -0.039443895 0.09851418
0003e0 e7 c0 db 3d 42 de 11 3e b4 d2 0b 3d 6b 2b ae bb
       0.107301526 0.14244941 0.03413649 -0.0053152344
0003f0 e2 95 07 3d 03 6a 1f 3e 0b 7f 90 3d 93 37 09 be
       0.033101924 0.15567784 0.070554815 -0.13400106

bias f4 [100]
000000 de 8f 4a bd cc 53 24 b2 7a 56 f2 af b3 48 21 b4
       -0.04945361 -9.56511e-09 -4.408099e-10 -1.5020741e-07
000010 d7 80 a7 bd f1 84 ea bd 73 61 d1 bb 22 04 2e bd
       -0.08178871 -0.11451138 -0.0063897907 -0.04248441
000020 c0 da 81 bd e4 1f d6 bb 4c 27 1c b8 79 c2 82 bc
       -0.063405514 -0.0065345634 -3.7229896e-05 -0.015961872
000030 1d 21 3c bd f1 77 9c ba fb de ef bb 59 76 53 bd
       -0.045930017 -0.0011937601 -0.0073202825 -0.051626537
000040 c6 39 4b ba f8 ed 97 bd c8 77 8c bb 62 60 e5 bc
       -0.00077524444 -0.07418436 -0.00428674 -0.02800006
000050 7b 46 f2 bd 38 62 ad bc 2e 46 af bd 7a 9d 10 be
       -0.11829849 -0.021164998 -0.085583076 -0.14122573
000060 2f 9f 89 bd b7 91 cd b8 56 cf 83 bd 5a 39 fa bc
       -0.06719815 -9.802303e-05 -0.064360306 -0.030544925
000070 65 c9 d0 bd bc 39 95 bd 12 86 ae bd bd 7b 84 bd
       -0.10194663 -0.072864026 -0.08521666 -0.06468914
000080 2c aa af bd 7f 0a ff ba 28 c4 0b be 8e 5e 29 bd
       -0.085773796 -0.0019458084 -0.13649046 -0.04134994
000090 48 f6 2b b4 3e 28 c6 b9 f7 04 07 ba ed 07 ec bd
       -1.6015213e-07 -0.00037795486 -0.0005150581 -0.11524949
0000a0 5a 6a 57 bc 29 c8 58 bd 71 a4 f8 bd dd f8 1b b6
       -0.013147915 -0.052925263 -0.1214074 -2.3241657e-06
0000b0 cc d0 72 b4 70 f9 92 bd eb 73 ba bd 7c 09 1c b7
       -2.2613966e-07 -0.07176483 -0.09104141 -9.300533e-06
0000c0 36 45 b9 bc ec 02 8a b4 9d f1 b7 bd fc 03 65 bd
       -0.02261601 -2.570663e-07 -0.08981631 -0.055912003
0000d0 40 48 a0 bd 7e ea 78 bd 42 7e 02 be 6c 69 09 ba
       -0.078262806 -0.060770504 -0.12743476 -0.00052418443
0000e0 f6 78 4d ba fa 28 8f bd 8c 24 ca bd 5c 60 5f bd
       -0.0007838154 -0.069902375 -0.09870252 -0.054535255
0000f0 89 b9 07 bb 3b ef 04 bc 04 21 0c bd ae 72 e6 bd
       -0.0020709953 -0.008113678 -0.034211174 -0.11252342
000100 85 be 12 be fa 6e a6 bd 52 4e 20 ba 90 dc 43 b7
       -0.1433049 -0.08126636 -0.0006115186 -1.1674259e-05
000110 40 8a d5 b3 fd b5 ce b5 ad 03 c5 bd b1 52 13 be
       -9.943733e-08 -1.5401162e-06 -0.09619842 -0.14387013
000120 4e 47 d3 ba 22 b3 19 bd d7 a9 19 bd ed 97 49 bd
       -0.0016119273 -0.03752435 -0.037515488 -0.049217153
000130 03 f1 fd b2 cc 71 3b bd 10 36 98 bd b2 65 1b be
       -2.9562676e-08 -0.045762822 -0.074321866 -0.15175512
000140 85 0d 87 bd c5 fd df bd 71 d3 9c b5 d7 aa a4 bc
       -0.065943755 -0.109370746 -1.1684443e-06 -0.020100994
000150 b0 6f 02 b7 9d 73 1c bd 4c 96 9c b9 42 5f ab bd
       -7.774608e-06 -0.038196195 -0.0002986662 -0.08367778
000160 3a 42 82 b6 d9 d8 1d be fe 50 1c bd b2 99 7e b2
       -3.8820117e-06 -0.15414752 -0.038163178 -1.4819692e-08
000170 c1 94 07 be 82 7b 73 bc c7 b6 0d be f2 d9 0c bd
       -0.13240339 -0.0148609895 -0.13839255 -0.034387536
000180 bf 10 23 bd 4a 63 1c be 6a 39 b6 bd 37 04 a0 bc
       -0.039810892 -0.15272251 -0.088976696 -0.01953326

weight f4 [1, 100]
000000 14 77 10 bd 28 ba b1 b1 8a b4 c6 af 4e 90 9a b3
       -0.03526981 -5.1725415e-09 -3.614427e-10 -7.197433e-08
000010 cd 28 bd bb 2f 87 62 bc ec 6c 1c 3a b1 d0 01 3d
       -0.005772686 -0.013826176 0.00059671584 0.031693164
000020 68 d8 5b 3d d8 e5 ac 3a e6 e5 6c b7 73 d1 ad 3c
       0.053673178 0.0013191057 -1.4120224e-05 0.021218037
000030 85 f2 bc bd 92 40 49 ba 84 22 24 bd c4 0c 9d 3c
       -0.092259444 -0.0007677163 -0.04007198 0.019171126
000040 79 65 63 ba 60 4d e8 bc 45 8e e0 3b 66 4b 0d 3c
       -0.00086744834 -0.028357208 0.0068528973 0.008623933
000050 4d 50 9a 3c 64 fb 25 bc 58 54 b9 bc a4 e0 67 bb
       0.018837119 -0.010130737 -0.022623226 -0.00353817
000060 12 b2 c5 3b 61 27 2f 39 e8 e8 60 bc d9 33 2c 3e
       0.0060331905 0.0001670397 -0.013727404 0.16816653
000070 c5 3a 05 bd fb 39 e3 3c e3 c6 6d 3d 24 d1 ec bc
       -0.03252675 0.027737608 0.058051 -0.02890832
000080 d3 4c 77 bd 90 de 8d b9 83 1c a0 bb 80 22 6a bc
       -0.060376 -0.00027059438 -0.0048862114 -0.014290452
000090 22 bd 15 b4 60 7f 05 39 2b 0f f1 b8 78 9a 03 bd
       -1.3945512e-07 0.0001273132 -0.00011494601 -0.032129735
0000a0 7c 73 09 3b f1 0d 09 bd 5d ea 2e 3c 69 c0 d9 b5
       0.0020973375 -0.03346056 0.010675994 -1.6223759e-06
0000b0 52 aa 02 b4 0f 3e 76 bb b4 69 eb bc fb 96 c7 b6
       -1.2169156e-07 -0.003757361 -0.028736927 -5.9482386e-06
0000c0 7d d2 90 3b 28 8e a2 b4 13 73 1b bc 10 60 25 3d
       0.0044196234 -3.0278284e-07 -0.009487885 0.040374815
0000d0 95 6c c5 3d f2 46 74 bb 32 d5 ed 3b 3a 15 19 ba
       0.09639851 -0.0037273732 0.007258081 -0.000583965
0000e0 6b 8c 0f 39 a4 8b 28 3d 5e 42 bc bc f7 77 9b bd
       0.00013689852 0.041148797 -0.022980865 -0.07591241
0000f0 7b dc 48 3a b3 6e 35 3b 88 f7 c0 3c 37 bc 8c 3c
       0.00076622487 0.002768439 0.023555532 0.017179592
000100 66 b2 b3 bc b6 79 4a 3d e7 45 af b8 3b 86 c1 36
       -0.021935653 0.04943248 -8.3576706e-05 5.7674747e-06
000110 d6 51 21 33 a2 80 60 b5 98 2b 25 3c a2 c6 2f 3d
       3.7560163e-08 -8.363369e-07 0.010081194 0.04291404
000120 bd a8 33 b7 c5 36 1f 3d f2 2a 80 bc 2f 5b 4d bc
       -1.0708519e-05 0.03887059 -0.015645478 -0.012533947
000130 bf e6 bd b2 e5 5f 96 bc 4b 30 e2 3b c3 97 f4 3c
       -2.2107427e-08 -0.018356273 0.0069027296 0.029857522
000140 63 ae d3 3c ed 17 65 3d e4 c2 5f b5 73 2d df 39
       0.02583999 0.05593102 -8.3357577e-07 0.00042567737
000150 b5 da 40 b6 a6 6c 8f bd 39 50 06 3a bb 74 ec 3a
       -2.8737534e-06 -0.07003145 0.00051236484 0.001804016
000160 cd a1 db b3 b5 09 13 bd ef b8 4e 3d 57 be 2f b2
       -1.02274136e-07 -0.03589793 0.050469335 -1.0229619e-08
000170 4e 0b 0b 3d 6c 06 f7 3b 39 3f f9 bb 85 80 e5 bb
       0.033946328 0.0075386073 -0.0076064137 -0.007003846
000180 41 c2 3c 3d 18 4d d5 3b d3 f4 87 3d ff 8e cf bb
       0.046083692 0.0065094344 0.066384934 -0.006334185
